{"config": [{"config": {"bias": true, "activity_regularizer": null, "input_dim": 442, "b_regularizer": null, "init": "glorot_uniform", "W_regularizer": null, "batch_input_shape": [null, 442], "output_dim": 442, "input_dtype": "float32", "b_constraint": null, "name": "dense_25", "W_constraint": null, "activation": "linear", "trainable": true}, "class_name": "Dense"}, {"config": {"name": "activation_25", "activation": "relu", "trainable": true}, "class_name": "Activation"}, {"config": {"name": "dropout_21", "p": 0.5, "trainable": true}, "class_name": "Dropout"}, {"config": {"bias": true, "activity_regularizer": null, "input_dim": null, "activation": "linear", "init": "glorot_uniform", "W_regularizer": null, "output_dim": 442, "b_constraint": null, "name": "dense_26", "W_constraint": null, "b_regularizer": null, "trainable": true}, "class_name": "Dense"}, {"config": {"name": "activation_26", "activation": "relu", "trainable": true}, "class_name": "Activation"}, {"config": {"name": "dropout_22", "p": 0.5, "trainable": true}, "class_name": "Dropout"}, {"config": {"bias": true, "activity_regularizer": null, "input_dim": null, "activation": "linear", "init": "glorot_uniform", "W_regularizer": null, "output_dim": 442, "b_constraint": null, "name": "dense_27", "W_constraint": null, "b_regularizer": null, "trainable": true}, "class_name": "Dense"}, {"config": {"name": "activation_27", "activation": "relu", "trainable": true}, "class_name": "Activation"}, {"config": {"name": "dropout_23", "p": 0.5, "trainable": true}, "class_name": "Dropout"}, {"config": {"bias": true, "activity_regularizer": null, "input_dim": null, "activation": "linear", "init": "glorot_uniform", "W_regularizer": null, "output_dim": 442, "b_constraint": null, "name": "dense_28", "W_constraint": null, "b_regularizer": null, "trainable": true}, "class_name": "Dense"}, {"config": {"name": "activation_28", "activation": "relu", "trainable": true}, "class_name": "Activation"}, {"config": {"name": "dropout_24", "p": 0.5, "trainable": true}, "class_name": "Dropout"}, {"config": {"bias": true, "activity_regularizer": null, "input_dim": null, "activation": "linear", "init": "glorot_uniform", "W_regularizer": null, "output_dim": 442, "b_constraint": null, "name": "dense_29", "W_constraint": null, "b_regularizer": null, "trainable": true}, "class_name": "Dense"}, {"config": {"name": "activation_29", "activation": "relu", "trainable": true}, "class_name": "Activation"}, {"config": {"name": "dropout_25", "p": 0.5, "trainable": true}, "class_name": "Dropout"}, {"config": {"bias": true, "activity_regularizer": null, "input_dim": null, "activation": "linear", "init": "glorot_uniform", "W_regularizer": null, "output_dim": 2, "b_constraint": null, "name": "dense_30", "W_constraint": null, "b_regularizer": null, "trainable": true}, "class_name": "Dense"}, {"config": {"name": "activation_30", "activation": "softmax", "trainable": true}, "class_name": "Activation"}], "sample_weight_mode": null, "loss": "categorical_crossentropy", "keras_version": "1.0.5", "optimizer": {"name": "Adam", "beta_1": 0.8999999761581421, "lr": 0.0010000000474974513, "epsilon": 1e-08, "beta_2": 0.9990000128746033}, "class_name": "Sequential"}